cifar_net.pth (torch_old, 249562 bytes, 10 tensors)

conv1.weight f4 [6, 3, 5, 5]
000000 4a af 1d 3e 4f 78 1c 3e 3d a9 f5 bc 7c 73 00 3d
       0.15398899 0.15280269 -0.029987926 0.031360134
000010 63 b7 85 3e 8d c5 cb 3e 65 f2 d8 3e 66 94 ee 3e
       0.26116475 0.39799157 0.42372432 0.46597594
000020 e1 a5 2a 3e b7 74 c2 3d 2f f8 16 3c 2a 68 ed 3d
       0.1666484 0.09494918 0.009214445 0.11592133
000030 58 47 a7 3c f8 e3 b0 bd 17 e9 a0 3c 18 ff 86 be
       0.020419762 -0.086372316 0.019642396 -0.26366496
000040 71 4a d8 be 19 dd e7 be 88 b8 c7 be 9d 3b 94 bd
       -0.42244294 -0.45285872 -0.39007974 -0.07237933
000050 a2 7e ce be 7f 57 c1 be c7 f2 b0 be bd 6b 4e be
       -0.40330988 -0.37762067 -0.34560224 -0.20158286
000060 1a 69 72 be b7 93 32 be 27 cb 86 be 58 fc 94 be
       -0.23672906 -0.17439161 -0.26326868 -0.29098773
000070 44 38 32 be 86 95 ce 3c 31 13 63 3e 04 63 ab 3e
       -0.17404276 0.025217783 0.2217529 0.3347398
000080 08 4c c7 3e 92 b2 ab 3d 62 91 3a bc 80 01 2b 3d
       0.38925195 0.08383669 -0.011387201 0.041749477
000090 4d c2 a4 3e 4d 93 82 3e 8e 15 12 3d 20 d8 ed 3c
       0.3217949 0.25503007 0.035665087 0.02903372
0000a0 11 4a b8 3b 53 94 d2 3b aa c3 d1 bd fc 38 25 bd
       0.005624064 0.006426373 -0.10242398 -0.040337548
0000b0 f1 a2 0b bd 8f a2 a9 bd af ff 51 be 5e 3e 8b be
       -0.03409094 -0.08282959 -0.20507692 -0.2719602
0000c0 23 d0 09 be c4 b4 4e bd 20 b1 af be 57 1d ba be
       -0.13458304 -0.05046536 -0.34314823 -0.3635051
0000d0 2f 64 68 be fe 8d 6c be 88 bd 2b be fd f9 b4 3d
       -0.22694467 -0.2310104 -0.16771519 0.08836744
0000e0 20 6c 80 3e 6b 04 8a 3e 10 82 11 3e ac 92 b6 bb
       0.25082493 0.26956496 0.14209771 -0.005571684
0000f0 bc 8c 8e 3a 97 9a 69 3e 5e 54 a8 3e 91 90 25 3e
       0.0010875682 0.22812878 0.32876867 0.16168429
000100 1d 0f a4 3d b5 19 9b bb de 51 ed 3d c7 45 52 bd
       0.08010695 -0.004733289 0.115878806 -0.051336076
000110 66 d8 3a 3e e1 0f d7 3d 8e 5e ac 3d 18 c3 a0 3d
       0.18246612 0.105010755 0.084164724 0.07849711
000120 59 5c 53 bc f5 1d 03 bd 90 6d 90 3e a6 2d 88 bd
       -0.012900435 -0.03201099 0.2820859 -0.06649332
000130 61 1e f5 bd a1 6f 47 3d 73 e5 25 be 7c ab a8 bd
       -0.11968685 0.048690442 -0.16200809 -0.08235833
000140 e9 bc 1e 3e 00 55 7b be d6 27 99 be 34 ec 98 3d
       0.15501751 -0.24544144 -0.29913205 0.07466927
000150 03 10 87 bb be 52 fb 3d 21 14 7d be c7 a4 e6 be
       -0.004121782 0.12271641 -0.2471471 -0.4504759
000160 3e 26 86 3e 47 59 7a 3e da f5 56 3c 8d 02 0a be
       0.2620105 0.24448119 0.013120139 -0.13477536
000170 4b cc f8 3c 20 7b 12 3e c5 99 33 3e 25 12 a2 be
       0.030370852 0.14304781 0.17539127 -0.31654468
000180 d4 dc 1b 3d e0 9c 8a 3e 2a d2 c9 3d b8 4f b7 bd
       0.038052395 0.2707281 0.09854539 -0.08950752
000190 2f 3a 5c 3e db 18 15 3e 7f f2 e2 3d e9 fb 64 3e
       0.2150657 0.14560263 0.11081409 0.22361721
0001a0 9d d9 2d 3d 5a 18 84 3e 7c ef ec 3d 3e a7 21 be
       0.04244386 0.2579983 0.115691155 -0.15786454
0001b0 74 b0 af 3e 9f 43 47 3e 23 1a ec 3e f3 7b 37 bc
       0.3431431 0.19459389 0.4611369 -0.011198985
0001c0 2a 0c 7b be 33 80 99 3e 7f 6a d6 3e c1 45 13 bb
       -0.24516359 0.2998062 0.41878125 -0.0022471996
0001d0 3e 98 cb 3c fe ab 0f 3e 88 3c 24 3e 1c 40 69 3e
       0.024852868 0.14030454 0.16038716 0.22778362
0001e0 91 e0 6a be 4c 01 51 bd bd 94 e3 3e eb c8 cf 3d
       -0.22937228 -0.051026627 0.44449416 0.10145744
0001f0 4c 18 af bd 68 65 64 be b5 9c 25 be ed 42 6d bd
       -0.08549556 -0.22304308 -0.1617306 -0.057925154
000200 c1 a9 05 bd 39 ee 28 be a5 0e b7 bc 06 81 44 be
       -0.032632593 -0.16497125 -0.02234585 -0.19189844
000210 6a 1b 2d be 3b 74 97 3d dc 03 ba bd 3b b4 69 3d
       -0.16904989 0.07395216 -0.09082767 0.057056647
000220 e4 7d 95 be 19 12 f6 be 5a 10 b5 3d 71 19 30 3e
       -0.2919761 -0.48060682 0.088410094 0.17197205
000230 0b 9c e8 bd 35 cc f3 bd aa 01 48 bd 30 bd 46 bd
       -0.11357888 -0.11904184 -0.048829712 -0.048520267
000240 29 ef 05 3e e0 2d 8a be 95 1a 43 be cf fb 9a 3e
       0.13079514 -0.26988125 -0.19053109 0.3027024
000250 00 cd 03 3d 9f 10 9f be 59 f3 16 be ca e7 2e 3d
       0.032177925 -0.31067368 -0.14741267 0.04270152
000260 16 c6 62 3e b0 84 88 bc 2e fc 39 bd 02 f5 26 3e
       0.22145876 -0.016664833 -0.045406513 0.163044
000270 bd a0 b7 3d 35 61 7d be 0f 5c 6d be e7 46 3b bb
       0.08966205 -0.24744113 -0.23179649 -0.0028576197
000280 a7 91 c3 3d 82 45 7e be 4a e7 be be fa 17 e3 be
       0.09549265 -0.24831203 -0.37285835 -0.4435423
000290 54 a8 39 be 25 19 6f bd 4c 43 85 bd 4f 23 05 3e
       -0.18130618 -0.05837359 -0.065069765 0.1300175
0002a0 4c 5e ca 3d a9 f1 89 bd 55 90 0d bc e2 0b 97 3e
       0.09881267 -0.06735546 -0.0086403685 0.29501253
0002b0 7d 2c ed 3e da a0 ea 3e 54 2c bf 3e 49 ba 2f be
       0.46323004 0.45825845 0.37338507 -0.17160906
0002c0 14 f9 e2 3d 70 76 b1 3d ff fe e2 3b ec 09 b9 3b
       0.11082664 0.08665168 0.0069273706 0.0056469347
0002d0 8f d6 08 3e 98 2f 34 3c 16 2b 3b be 74 a0 74 be
       0.13363098 0.010997675 -0.18278155 -0.23889333
0002e0 fd 9d 55 bd ca 6f 0c 3e 95 64 10 be 8b 2e a1 be
       -0.052152622 0.13714519 -0.14100869 -0.31480822
0002f0 f5 a4 bf be 6d d9 35 be 23 93 41 bd e8 1e 5d 3b
       -0.3743054 -0.17758723 -0.04725946 0.0033740345
000300 6e 85 05 3e c7 2d 20 3e 5e 5b eb bd a4 31 3a be
       0.1303918 0.15642463 -0.11492036 -0.18182999
000310 95 10 4d 3e bf 6b 33 3e e0 b7 b1 3e d9 99 e1 3d
       0.20025857 0.1752157 0.34710598 0.11015672
000320 0e 58 04 bd 60 2b 5b bc 59 69 8a 3e e7 81 30 3e
       -0.032310538 -0.013377041 0.270335 0.17237054
000330 11 c7 5c 3e 68 12 79 3e ea 42 32 3d 80 f0 18 be
       0.21560313 0.24323428 0.043520845 -0.14935493
000340 ef 9c 2b be 7d 13 f7 3d 26 5b b1 3d c9 66 00 be
       -0.16759084 0.12064264 0.08659963 -0.1253921
000350 9e b3 a7 be f5 31 7d be 4f 57 38 be 09 0d 0e bd
       -0.32754225 -0.24726088 -0.18002056 -0.0346804
000360 7e 44 9c bd 33 e0 76 3e ce d8 18 3e f9 7e 0f be
       -0.07630251 0.24108963 0.14926454 -0.1401328
000370 99 67 75 be 52 6d a6 3c 50 13 bb 3d 16 e3 6d 3e
       -0.239653 0.0203158 0.09134543 0.23231158
000380 c1 4d d5 3d 3f ba cf 3d 9a 8d 44 3e 75 92 ac 3e
       0.10415221 0.101429455 0.19194642 0.33705488
000390 2e de 94 3d 3a 99 a8 3d 06 e0 80 bb c4 a1 e5 3d
       0.0726894 0.08232351 -0.0039329557 0.11212495
0003a0 82 7e 8b 3d 58 b4 57 be 56 57 97 3e 50 5b a8 bd
       0.06811239 -0.2106489 0.2955882 -0.082205415
0003b0 3a fc 8a bc 81 96 a7 be ef 1d 38 be a3 15 59 3e
       -0.016965974 -0.32732013 -0.17980169 0.2119966
0003c0 e1 70 35 be 69 c4 10 be a7 d3 0d be 18 5c 03 be
       -0.17718841 -0.14137425 -0.1385027 -0.128281
0003d0 61 34 75 3d 61 28 41 be d2 89 86 be 13 6b d4 bd
       0.059864406 -0.1886306 -0.26277024 -0.10371985
0003e0 1a cf f4 bd 8d fe d0 3c 5b 04 e8 bd 66 2a 5d 3d
       -0.11953564 0.025512004 -0.11328956 0.053995512
0003f0 06 4e 63 be c9 9b b6 be ff 88 d0 be 18 38 c8 bc
       -0.22197732 -0.3566573 -0.4072952 -0.02444081

conv1.bias f4 [6]
000000 df 45 db be 6f b3 5a be 40 cb 3e be e7 54 cc be
       -0.42826745 -0.21357511 -0.18632221 -0.39908525
000010 3b ab 42 be bd b5 50 3e
       -0.19010632 0.20381828

conv2.weight f4 [16, 6, 5, 5]
000000 28 2a ff bd a5 96 89 bc c3 7e fe 3c 7f 1f 96 bd
       -0.124592125 -0.016795466 0.031066304 -0.07330226
000010 8a c4 89 bd 41 6c bc bd f7 5d 13 3d d3 18 7e bd
       -0.0672694 -0.09200335 0.035978284 -0.062035393
000020 d8 fd 79 3d 33 05 c7 3c e0 13 26 3b 16 51 11 3c
       0.0610331 0.024294471 0.0025341436 0.00886943
000030 b8 97 97 bd 55 89 18 3e db 67 85 3d 6e af 91 3b
       -0.07401985 0.14896138 0.065139495 0.0044459617
000040 98 c8 78 3c 47 2b 65 3d 53 36 54 bd 4f cc b4 3d
       0.015184544 0.055949476 -0.05180962 0.08828031
000050 8b ad b0 3b 45 44 bb bd 37 8a 12 bd 2d fd 67 3c
       0.0053917817 -0.09143881 -0.035776343 0.014159483
000060 eb 06 37 bc 41 f4 86 be 72 47 b7 bd 89 7f bc bd
       -0.011171083 -0.26358226 -0.08949174 -0.09204013
000070 35 37 5f bd f3 f9 88 3b 58 6a 29 be 77 88 2b be
       -0.05449601 0.004180187 -0.16544473 -0.16751276
000080 62 33 66 bc 7e 54 94 3d 01 44 06 bd df c8 42 be
       -0.014050337 0.07242678 -0.032779697 -0.19021939
000090 d2 9d 2f be 7d e8 9d bd c2 7c b3 bd fc df 90 bd
       -0.17150047 -0.07710359 -0.0876403 -0.07073972
0000a0 aa 0a 8e bd be a3 2a be b2 02 d2 bd 6b 76 01 bd
       -0.06935628 -0.16664025 -0.1025442 -0.031607073
0000b0 c7 db dd bd d9 53 a3 bb 56 3f 81 bd bc b1 33 be
       -0.10832935 -0.0049843607 -0.063109085 -0.17548269
0000c0 44 7b ff bd 4f 89 0b be 7d 29 a0 bd fa a3 66 bc
       -0.12474683 -0.13626598 -0.07820413 -0.014077181
0000d0 ae 36 ba bd f7 e5 73 3b b5 25 92 3d 8b af a5 3d
       -0.090924606 0.0037215927 0.07136098 0.08090123
0000e0 a5 b9 26 3d 7c df ce 3b 2b 50 c8 ba 62 26 02 3d
       0.04070439 0.0063132625 -0.0015282681 0.031774886
0000f0 b4 12 3c bc 8f 7d 02 3c 10 7c 53 3d e4 26 ac 3d
       -0.011479069 0.007964506 0.051631987 0.08405855
000100 5e 49 f3 bb 66 f1 d2 ba f1 c0 2d bd 93 2b c1 3d
       -0.0074245175 -0.0016093671 -0.04242033 0.09432139
000110 6a 94 19 bc 2b 96 5c bd c0 5b 24 be d5 ca bb bd
       -0.009373764 -0.05385415 -0.16050625 -0.091695465
000120 6d f8 5b bd 2c 95 21 bc 31 81 a7 bd 00 fd b2 bd
       -0.053703714 -0.0098622255 -0.08178938 -0.08739662
000130 8f 73 ec bd cc 03 56 bd 64 ef 9c bd 34 bb 76 bc
       -0.115454786 -0.052249715 -0.07662848 -0.015059281
000140 85 3b 2a 3d 07 db dc 3c 2e 73 0c bd c4 a3 50 3b
       0.04156067 0.02695991 -0.03428953 0.0031835893
000150 3f 20 e7 bc 44 e1 d0 bc 1b df 8e 3d c0 e5 71 3d
       -0.028213618 -0.02549804 0.06976148 0.059056997
000160 72 96 e0 3d 46 92 96 3d 54 79 40 3d 46 92 ba bd
       0.10966195 0.07352118 0.046990708 -0.09109931
000170 c0 9f b8 3d 1e ff e8 3d 6f 74 20 3d ed 7f 98 3d
       0.09014845 0.11376785 0.03917354 0.07446275
000180 78 92 92 3b d6 fa 4f bd bc 01 a0 3d 6b b6 c7 3c
       0.004473027 -0.050776325 0.07812831 0.024378976
000190 1b 81 27 3e da 4c 37 bd 61 6e c6 bd 91 66 fa bd
       0.16357844 -0.044751026 -0.09689022 -0.12226594
0001a0 80 fc 08 be 86 c5 af 3d 3d a6 28 3e 53 77 e6 bd
       -0.13377571 0.085825965 0.16469665 -0.11253228
0001b0 bd 71 8a bd 1a 8f 60 3c 44 29 31 3d 04 50 18 3e
       -0.06759975 0.013705993 0.043252245 0.14874274
0001c0 6f b2 13 3e 54 0d cf 3d 41 98 60 3c 69 c6 6e bd
       0.14423536 0.10109964 0.013708175 -0.058294687
0001d0 0d c0 2f bc 5f e2 f7 bc 61 72 ac 3d 6b 83 66 bb
       -0.010726941 -0.03025931 0.084202535 -0.0035173546
0001e0 f9 5b 89 bd 0a 3a 6e bd ab 53 a3 bd f0 a3 70 3d
       -0.067069955 -0.05816082 -0.07974943 0.058750093
0001f0 0d e3 40 3d d6 45 25 3e 6e c7 94 bc 49 d9 73 3d
       0.047091532 0.16139922 -0.018161502 0.05953339
000200 86 d2 28 3d 8a 2d 1d bd 77 c2 d0 3d 5b 59 4f 3c
       0.041216396 -0.038373508 0.10193341 0.012655581
000210 64 e2 e4 bd 5a 14 c8 bd 8d 9b 01 3d fc 89 47 3e
       -0.11175993 -0.09769507 0.031642485 0.1948623
000220 32 c3 11 bd 9b 39 12 3c 43 10 64 3c cb 6c 3a bd
       -0.035586543 0.008924867 0.013919893 -0.04551391
000230 fd 6b 04 3e 62 6d 34 3e a2 f3 d4 3d 1a ec 69 3b
       0.1293182 0.17619851 0.10398032 0.0035693706
000240 34 29 a6 3d 0f 03 65 3e 3d 1a d5 3d b9 19 5c 3e
       0.081133276 0.22364448 0.10405395 0.21494187
000250 f9 26 27 3e 5c c6 60 3d 79 45 9d 3d ca 38 05 3d
       0.1632346 0.05487667 0.076792665 0.03252486
000260 2f 1e 29 3d bb 5e 90 3d a3 31 e3 3d df 93 70 3d
       0.04128855 0.070493184 0.11093452 0.05873477
000270 ad 61 4d 3d b0 26 3d bd d4 98 72 3d 0c 37 9a 3c
       0.05014198 -0.046179473 0.05922778 0.018825077
000280 cf cc c7 3c d4 09 be 3d 30 c9 83 bd e3 69 1f 3d
       0.024389653 0.09279218 -0.06434858 0.03891934
000290 9c 26 8a bd af 9b 3a bd a7 9b ad bd b2 31 b3 bd
       -0.067456454 -0.045558628 -0.08476954 -0.08749713
0002a0 0e 72 48 bd af d5 09 be ce ff 02 bd ec f1 fe bd
       -0.048936896 -0.1346042 -0.031982236 -0.12448487
0002b0 94 40 26 be 30 f0 72 be 61 af 15 be 81 bf a7 3d
       -0.16235572 -0.23724437 -0.14617683 0.08190823
0002c0 fd dd 7d 3e 3a e4 f9 3d 91 37 2b be bb 1a 11 be
       0.24791713 0.12201734 -0.16720416 -0.14170353
0002d0 9f 77 39 3c 22 bf 95 3e cf 6a ba bb 69 f7 51 be
       0.011320024 0.29247385 -0.005689002 -0.20504536
0002e0 36 63 0d be e0 4b 43 bd 28 7b 5f 3e 7e 55 3a bd
       -0.13807377 -0.047679782 0.21824324 -0.045491688
0002f0 cf 7c 42 be 9c 18 c4 bd 6e 71 f5 bc 07 aa 0b 3e
       -0.18992923 -0.09575006 -0.029961314 0.13639079
000300 20 f3 0d 3b ef 68 be bd ad ad b1 bd e8 40 23 bb
       0.0021659806 -0.09297358 -0.08675704 -0.0024910513
000310 e7 7e 19 3e d5 be 85 3d ee 0b c1 bd 30 a0 ac bd
       0.14989816 0.06530539 -0.094261035 -0.08428991
000320 8b f4 f8 bc 3b be 7b 3d 43 7e 04 3c 1c d9 94 bd
       -0.030390045 0.061460715 0.008086744 -0.07267973
000330 8c 1b 28 be 24 d5 da bb 2f 3c 72 bd a5 9a 86 be
       -0.16416758 -0.0066782404 -0.059139427 -0.2628986
000340 10 0d 8f be 87 7d 1a be a9 2e ed bc f0 c9 5b be
       -0.27939653 -0.15086947 -0.028952913 -0.21463752
000350 e7 36 b5 be 58 a0 78 be 87 b8 20 be 0d 53 c8 bd
       -0.3539345 -0.24279916 -0.15695392 -0.09781466
000360 12 b6 5b be cc 29 69 be 78 6f 3b be 19 ce 10 be
       -0.21456173 -0.2276985 -0.1830424 -0.1414112
000370 f6 23 0c be d2 4f 3d be 60 73 c1 bd d7 0e a9 bd
       -0.13685593 -0.1848748 -0.09445834 -0.082547836
000380 48 cd f9 bd da 74 74 3e dd 56 e9 3d 50 17 02 be
       -0.121973574 0.238727 0.11393521 -0.12704206
000390 52 ef 4a be 7d c7 55 be e0 eb 8e 3e d9 4e 57 3e
       -0.19817856 -0.2087688 0.27914333 0.21026172
0003a0 a8 64 2f be 73 ce 26 be 2f 2d 0e be d1 1a 97 3e
       -0.17128241 -0.16289692 -0.13884424 0.29512647
0003b0 5c 0e c3 3d 81 f1 25 be f4 2e 25 be 54 7d c5 bd
       0.09524223 -0.16205408 -0.16131192 -0.09643045
0003c0 0f c9 2f 3e 8f dd 51 bc b1 96 9e 3b 1d 99 15 be
       0.17166542 -0.012809171 0.004839741 -0.1460919
0003d0 bd eb ae bd ba 8e 4a 3e 45 88 77 bc 16 bb 23 be
       -0.08541057 0.19781008 -0.015108173 -0.15989336
0003e0 c9 97 57 be 70 dd c5 bd cf 48 96 bd 95 ea 78 be
       -0.21053995 -0.096613765 -0.07338106 -0.24308236
0003f0 e8 04 25 be e0 f3 43 3e 66 06 37 3d fd 73 ac bd
       -0.16115153 0.19136 0.044683836 -0.084205605

conv2.bias f4 [16]
000000 a9 7f 24 3e ab 9f 87 3e 8a a3 d7 3d a3 dd 39 3e
       0.16064323 0.26489004 0.105292395 0.18150954
000010 46 1a 7f be 54 1f d7 bd d3 c6 16 be a0 97 1f 3f
       -0.24912366 -0.10504022 -0.14724283 0.62340736
000020 ac fc 0f bf 12 5e ad 3e fe f1 3e bf 3b 1e b3 3e
       -0.5624492 0.33860832 -0.74588 0.34984002
000030 18 de 51 be c4 89 14 3e f4 59 04 3f 87 30 db 3e
       -0.20494878 0.14505678 0.5169976 0.4281046

fc1.weight f4 [120, 400]
000000 f4 16 14 bd 9f d7 68 bd 30 61 ac 3c 61 b0 99 3c
       -0.036154702 -0.056846257 0.021042436 0.018760862
000010 ae 08 64 3c a9 10 33 3c d3 69 06 bc 32 e1 62 bc
       0.013918085 0.010929265 -0.008203941 -0.013847636
000020 8c 06 41 3d de 3e a5 3b 69 20 f0 bc a5 65 b5 3c
       0.047125384 0.0050428947 -0.02931233 0.022143194
000030 f0 e8 0d bd 51 63 06 bd 92 81 88 bc ff 72 1f 3d
       -0.034645975 -0.03280956 -0.016663346 0.03892803
000040 5d 5a 02 bc 01 a9 42 bc fb 63 97 bc 60 25 6e 3c
       -0.007956115 -0.011881114 -0.018480292 0.014535278
000050 81 d6 06 3e 39 45 c6 3d 65 22 da 3c 17 45 fb 3c
       0.13167764 0.09681172 0.026627729 0.030672593
000060 a7 44 a6 bc d4 bd 0b bd 5c 25 04 bd 72 e5 7c bd
       -0.020296408 -0.03411658 -0.03226219 -0.061742254
000070 63 65 31 bd d0 95 6d bd b6 5e 52 bd 30 4c a1 bd
       -0.04330958 -0.0580042 -0.051359855 -0.0787586
000080 df cc f1 bd df 6e cc bd 0d bb f3 bd 8f b6 3e bd
       -0.11806654 -0.099820845 -0.119009115 -0.04656082
000090 0a 9b 92 bd 9e e4 74 bd 3d 16 ee bc 0b 49 8f bd
       -0.071584776 -0.05978834 -0.029063338 -0.06996354
0000a0 a6 ee 7e 3d 20 44 2d bd 99 e6 21 bd a5 f2 e5 3a
       0.06223931 -0.042301297 -0.039526556 0.0017543627
0000b0 e8 a8 25 3c b7 b2 05 bd d4 77 77 bc 88 a5 c2 bc
       0.010111071 -0.03264114 -0.015104253 -0.023760572
0000c0 70 41 4c bd e4 52 18 3d e8 5a d0 3a 73 52 b7 3c
       -0.049867094 0.037188426 0.0015896233 0.022378182
0000d0 7b bd a9 3c f1 ae 70 bc ff 11 a9 bc 7d 4e 2d 3b
       0.020720234 -0.014690147 -0.020638464 0.0026444488
0000e0 00 ee 7b bb 61 aa e2 bc a5 70 2f 3d 2d 04 e1 3c
       -0.003844142 -0.027669134 0.042832036 0.027467811
0000f0 61 48 b0 3d 54 e8 88 3c 2b fc 75 3d 37 75 2a 3d
       0.08607555 0.016712345 0.06005494 0.04161569
000100 d0 de de 3d 53 87 ec 3c 94 46 71 3d ec 61 a1 3b
       0.10882342 0.028873121 0.0589052 0.0049250033
000110 ac df aa 3c e7 48 07 bd fe 61 c6 3b cf 72 32 3b
       0.020858608 -0.03302851 0.006054162 0.0027229076
000120 9e 6e c5 3c ae 44 aa bd 3d cd 6a bc f3 30 0e 3c
       0.024100598 -0.08313881 -0.014331159 0.008678663
000130 20 90 b8 3c 8e 62 c7 bc b9 9c fc 3c 68 d6 99 bc
       0.022529662 -0.024338987 0.03083645 -0.018778995
000140 0e 7e 26 bd 9e aa 44 3a d2 bd 30 bd c2 5d df ba
       -0.04064756 0.00075022306 -0.043149777 -0.0017041492
000150 8d ee 35 3d 1f f4 84 3d 29 f6 e2 bc ae 17 72 bc
       0.044416953 0.06491875 -0.027705269 -0.0147761535
000160 19 28 db bb d3 a6 08 bd 7d b3 83 3d 9a 3e 86 3d
       -0.0066881296 -0.03336222 0.06430719 0.06554909
000170 bb 36 ce 3c d7 a0 3b bd a8 b7 d1 3b 59 be 73 3c
       0.025172582 -0.045807686 0.0064000674 0.014876925
000180 c8 6d 8f 3d 24 cd 11 ba 3c d5 97 bc 97 9f 3e 3d
       0.07003361 -0.00055618794 -0.018534295 0.046538915
000190 e0 59 f8 3c fe a5 eb 3c e1 1f af bd 85 66 65 b9
       0.030316293 0.028765675 -0.08551002 -0.00021877333
0001a0 4d 52 63 3d 4f 32 1e 3d 30 80 e5 bb ac 18 f4 bc
       0.05549841 0.038622197 -0.0070038065 -0.02979692
0001b0 42 15 ed bc 13 4e ff bc ab 11 30 3d 86 57 2e bb
       -0.0289408 -0.031165158 0.0429856 -0.002660246
0001c0 6a 6f 27 3d a5 1b bf 3c 99 93 27 3d f1 a0 65 bc
       0.040877737 0.023328612 0.040912244 -0.014015422
0001d0 92 74 a1 3c 7c 05 c1 bc fd 73 05 bd de 9e 05 3d
       0.019708905 -0.023562185 -0.03258132 0.03262221
0001e0 23 18 b6 bd 3d 14 b0 bd 78 5f 3d bd 6e e9 70 bd
       -0.088913225 -0.0859761 -0.046233624 -0.058816366
0001f0 db 90 9a 3c 70 05 78 bd 40 9a fb bc ba d2 e1 bc
       0.0188679 -0.06055206 -0.0307132 -0.027566303
000200 22 a4 01 bc 34 5a e0 3c f3 64 29 bd 25 6c 6e bc
       -0.0079126675 0.027386762 -0.04135604 -0.014552151
000210 1e 0d ba 3c 4f 3f 25 bd 00 3e 57 3c 2b 84 9a ba
       0.022711333 -0.04034358 0.013137341 -0.0011788657
000220 9e b5 dc 3c 1e ce 80 bc ce a9 3a bd 8b bd 22 bd
       0.02694207 -0.015723284 -0.045572095 -0.039731544
000230 a2 83 91 ba cf 9c da bc e5 6d 6b bd 10 50 15 3c
       -0.0011101852 -0.0266861 -0.05747785 0.009113327
000240 67 b3 2a 3d 64 55 b9 bc 6e 61 87 bb 7c 01 ad 3c
       0.041674998 -0.022623725 -0.0041314876 0.021118872
000250 f3 77 94 bc b5 e5 a4 3b 6c 4f 66 bd 2a 8e a0 3c
       -0.018123602 0.005032266 -0.056228086 0.01959904
000260 00 28 26 bd d5 cf 9f 3c 5e d2 dc bc 51 3c 94 3c
       -0.04056549 0.019508282 -0.02695578 0.018095167
000270 e0 ad 18 bd fd 8f 15 bd 7e 74 14 3c 30 82 56 3c
       -0.037275195 -0.03651427 0.009060977 0.013092563
000280 26 af 83 bc 7b ca 2d 3d 9c 20 4e bc 95 ba 40 3d
       -0.016074728 0.04242943 -0.012581017 0.04705294
000290 12 cd e0 bc cf 37 24 ba a0 10 c1 bc ce df 1d bd
       -0.027441535 -0.00062644196 -0.023567498 -0.038543515
0002a0 61 c8 ea 3c 28 6a 0f bd a9 4d 89 3d a0 e0 4f 3d
       0.028660001 -0.035013348 0.067042656 0.05075133
0002b0 96 73 f9 3c 7f c9 1a bd fe 64 ca bc 3d 68 bf 3c
       0.030450623 -0.037789818 -0.02470636 0.023365134
0002c0 4a e5 6f bd 62 e5 7b 3b 5b aa ad bc a3 93 28 bd
       -0.058568276 0.0038436283 -0.021199396 -0.041156422
0002d0 4e 97 26 3c 27 28 cf bc 70 8d aa bd 43 6f 92 3c
       0.01016791 -0.0252877 -0.08327758 0.01787532
0002e0 d9 9f 8d b9 d2 46 6b bd a2 b7 f7 bc 67 8f 9b bd
       -0.00027012712 -0.057440586 -0.03023893 -0.07595711
0002f0 e6 ac 84 bd 2a c9 03 3c 8d 54 e3 ba 56 42 8e bd
       -0.0647829 0.008043567 -0.0017343924 -0.06946246
000300 68 17 40 bc 23 82 9e bc e4 92 e8 bb a9 d9 95 bd
       -0.0117243305 -0.019349163 -0.007097589 -0.07316906
000310 79 29 eb 3c 8e 58 4b 3d cd ae c4 3c f0 94 7e bc
       0.0287063 0.049645 0.024009133 -0.015538439
000320 b7 59 92 bc 8b 41 aa 3b 24 78 ef bc 1b a1 3c bd
       -0.017865045 0.0051958016 -0.029232092 -0.04605208
000330 5f ac 12 bd fc aa 63 bd 5b 39 9d 3c 76 86 a0 bc
       -0.035808917 -0.055582985 0.019192388 -0.019595366
000340 6f ab a7 bd fb 97 07 bd cc d3 f8 3c 66 ce b1 3a
       -0.08186995 -0.033103924 0.03037443 0.001356554
000350 77 3e 42 bc ac 12 ba bc 1a 69 c3 3b d8 ce 31 bc
       -0.011855713 -0.022713982 0.005963457 -0.010852538
000360 6d ea ef bc a3 89 3b bd 3f d0 10 3c 79 aa 8c bd
       -0.029286588 -0.045785557 0.008838712 -0.068684526
000370 ca e5 38 bd c1 46 29 bd 19 5c 9e ba ff b2 a7 bd
       -0.04514102 -0.04132724 -0.0012081891 -0.08188438
000380 8e 47 8c bd 6c 66 8d 3d c3 25 63 3d 07 f1 c0 3d
       -0.068495855 0.06904301 0.055455934 0.09420972
000390 07 85 a1 3d bb 8d 0e 3b 7b 02 8d 3d d6 47 85 3d
       0.07886701 0.0021751958 0.06885239 0.06507842
0003a0 8d 08 79 3d 3d 04 3d 3d 41 c0 14 ba 76 46 09 3c
       0.06079917 0.04614662 -0.00056744 0.008378616
0003b0 32 dd 53 bc 7c ae 77 3d 9a 05 87 3d 8c af 85 3c
       -0.012931155 0.060469136 0.06592865 0.016319059
0003c0 a7 4f 04 3d 76 8d 2e 3d 2f 01 af 3d 02 fd 97 3d
       0.032302525 0.042615376 0.08545148 0.07421304
0003d0 b0 cf 6b 3d f1 ba 23 3d 8c 73 9f bc ff a9 c6 3c
       0.057571113 0.039973203 -0.019464277 0.024250982
0003e0 eb 3c 30 3d 3e df 2e 3d 64 14 43 3d d6 69 51 bc
       0.043026846 0.04269337 0.047626868 -0.012781581
0003f0 29 27 87 bd b9 f0 1b 3d d0 2d 2b bd b1 63 20 3b
       -0.06599266 0.038071368 -0.041791737 0.0024473483

fc1.bias f4 [120]
000000 0f 7c 46 3c 06 8e b7 3d e8 8f 17 bd 69 00 02 be
       0.012114539 0.08962636 -0.037002474 -0.12695469
000010 22 cf 90 bc 75 29 84 bd 81 3f 14 3d 94 86 c7 bd
       -0.017676894 -0.0645322 0.036193375 -0.097424656
000020 4b 66 02 be 86 19 c5 3d e7 34 39 3e d2 94 e4 bc
       -0.12734334 0.09624009 0.18086587 -0.027902994
000030 36 b6 be 3d 13 07 98 bd c8 6d 83 3b 44 05 4b bd
       0.09312098 -0.07423224 0.0040108897 -0.04956557
000040 be 6f 00 3d b5 c3 af bc 53 52 16 3e 0c da 1b be
       0.031356566 -0.021455625 0.14679842 -0.15219897
000050 c0 9f 15 3d 0f c8 12 bc 32 65 99 3c fe 87 1e bd
       0.036529303 -0.0089588305 0.018725011 -0.03870391
000060 f4 48 86 3c b7 ef 1b 3e a2 53 fd 3b de 8b bd bb
       0.016392209 0.15228163 0.007730917 -0.0057844957
000070 06 80 c3 bd 20 e1 47 3d b7 fd e1 3d bf 1d bd 3d
       -0.09545903 0.04879868 0.110347204 0.09234189
000080 0f 93 b0 bb b3 e4 88 3d 55 e4 c7 bc c8 06 32 bd
       -0.0053886245 0.06684246 -0.02440087 -0.0434635
000090 52 39 0e 3e dd d9 0e bd dc f6 8e bd eb 1d 29 3d
       0.13889053 -0.03487574 -0.069806784 0.041288298
0000a0 e7 60 90 bc e7 80 8d 3a 68 41 ac bc 8b 10 bd bd
       -0.017624332 0.0010795862 -0.021027282 -0.09231671
0000b0 16 2c 9f bc e3 6e 0b 3d 60 a2 9a 3d 5d 9d 82 bd
       -0.019430202 0.034041297 0.07550502 -0.06377671
0000c0 b9 e5 98 be eb 93 6a 3c f6 99 c0 3c be a8 02 be
       -0.29862764 0.014317493 0.023510914 -0.12759683
0000d0 07 24 b1 3d 05 12 f5 3c 3b 53 6d 3d aa c6 78 3d
       0.0864945 0.029915819 0.057940703 0.060736336
0000e0 23 01 85 bd 45 9a 8b 3d ea 63 2a bd 4f 2d db 3d
       -0.064943574 0.06816534 -0.04159919 0.10702001
0000f0 46 7a 9c 3d 7d c2 a0 3b 43 34 52 3c 29 58 c4 bc
       0.07640509 0.0049059973 0.012829843 -0.02396782
000100 3f 88 db bd 19 74 71 b9 23 dd ca 3b 03 46 40 3c
       -0.10719346 -0.00023026801 0.0061909123 0.011735442
000110 dd 08 00 bd a3 a2 42 3d de 48 33 3d c1 76 d6 bc
       -0.031258453 0.047518384 0.043770663 -0.026179673
000120 24 64 15 3d 05 d2 ff 3d d6 f1 82 3d 56 c8 f4 bc
       0.036472455 0.1249123 0.06393783 -0.029880684
000130 a6 73 90 3e 8e b1 71 bd 8e d4 13 3d 4b 39 f0 bd
       0.28213233 -0.05900722 0.03609138 -0.11729678
000140 54 f7 d6 3d 25 00 32 3e af 6f 04 bd 26 c9 c9 3d
       0.10496393 0.17382868 -0.032333072 0.09852819
000150 5e 45 ce 3d db d8 35 3d 14 33 ad 3d a2 26 11 3d
       0.100718245 0.044396263 0.08457008 0.035437234
000160 80 14 cb 3b ed ba 6b bd 03 01 0b 3e c1 4a 90 3d
       0.006197512 -0.057551313 0.13574605 0.07045508
000170 0d 10 05 bc c8 d5 51 3d 1f be 98 bc 6e 8e 24 be
       -0.008121503 0.05122927 -0.018645344 -0.16069958
000180 07 e3 b0 3c 0f 7a a8 3c ae 75 3f bc f1 ed 29 bd
       0.02159263 0.020566015 -0.011685772 -0.041486684
000190 5c 27 01 be 11 18 1f 3e 6b b3 1a 3e 95 41 12 bd
       -0.1261267 0.15536524 0.15107505 -0.035707075
0001a0 09 1b ec bd de 43 26 3d e3 ca 90 3e 66 23 74 bd
       -0.11528594 0.040592067 0.2827979 -0.05960407
0001b0 72 36 e4 3d 53 6c 4a be dc 11 dc 3c 99 82 08 3d
       0.11143197 -0.19767885 0.026863985 0.033327673
0001c0 13 9e 5d 3d a4 75 3e bd 70 3d 03 3c 93 11 4d 3d
       0.05410583 -0.04649891 0.008010253 0.05006559
0001d0 ac c4 8d bd 0e 52 a2 3d 5e 44 25 bd 15 bb c8 3d
       -0.06922278 0.07925807 -0.040348403 0.09801308

fc2.weight f4 [84, 120]
000000 1d 8b 93 3d 55 73 c9 3d 8a c8 3b bd f7 8c bd 3d
       0.07204268 0.09836451 -0.045845546 0.092554025
000010 8b 22 68 3d da 96 38 3d af 54 8a 3d bd 7c b2 3d
       0.056673568 0.04506574 0.06754433 0.08715198
000020 28 6e c7 3c b4 6f d2 3d 79 6c 95 bd 54 39 5e 3d
       0.024344519 0.10275212 -0.0729608 0.05425389
000030 5a e7 98 bc 70 30 22 3d 40 4c 54 bd c6 ec 24 3d
       -0.018665005 0.039596975 -0.05183053 0.040264867
000040 0e e3 1d 3d 25 b7 5c bd 1e 39 03 be 26 2a 67 3d
       0.038546614 -0.053885598 -0.12814757 0.05643668
000050 ec 07 35 bd c6 28 bc 3c df d0 3f 3a cf ae 5c 3d
       -0.044197008 0.022968661 0.0007317196 0.053877648
000060 7c 4f fc 3c e4 5f bb bd 10 b3 c3 bc c6 e0 87 3d
       0.03079962 -0.09149149 -0.023889095 0.06634669
000070 93 3d 2c bd 80 e2 11 3d 25 e4 86 3d bb a1 9c 3d
       -0.04205091 0.035616398 0.06586484 0.07648035
000080 06 65 3b 3d 84 b5 52 3b ec 7d ea 3d c4 0c a4 3d
       0.04575064 0.0032151649 0.11449799 0.08010247
000090 94 40 67 3d 0b 22 25 3d 01 7d cb 3d 43 46 dd 3d
       0.05645807 0.04031567 0.09935952 0.10804417
0000a0 97 c0 d4 bd 95 02 df bb 41 6a b1 bc b7 5f 33 bc
       -0.10388296 -0.0068057277 -0.021657111 -0.010948113
0000b0 94 8a f7 3d dc 07 be bc 98 bc 3c 3d eb 6a bd bd
       0.120869786 -0.023197107 0.046078295 -0.092489086
0000c0 74 a2 65 bd 37 12 9f bc 04 3f d8 bd 69 5c 81 3d
       -0.05606313 -0.019417865 -0.10558894 0.06316454
0000d0 a4 2d 5b 3d 85 37 e0 bd fd 18 86 3d 0e e8 a6 3d
       0.053510323 -0.109480895 0.06547735 0.0814973
0000e0 e3 ac a5 3d e6 73 a9 bd fe 75 93 3d b4 dc 0b be
       0.08089616 -0.08274059 0.072002396 -0.1365841
0000f0 42 5a 98 bd 10 65 01 3d 1d 35 a8 3d ca a7 1b 3d
       -0.0743909 0.03159052 0.082132556 0.038001813
000100 de 2b 2f bb 66 d5 51 bd aa 4e aa 3d 47 4c 0a 3d
       -0.0026729028 -0.051228903 0.08315785 0.03376415
000110 96 bf 38 3c 1f fd 93 3c f7 f4 9a 3d e2 62 99 bd
       0.011276146 0.018065033 0.075662546 -0.074895635
000120 6e 3e a2 bd 73 29 0c 3d 4d 64 b9 bd 72 48 b8 3d
       -0.07922064 0.034219217 -0.09052334 0.08998193
000130 7c d6 82 bc f4 d0 b5 3d fa 50 85 bd b9 b5 a4 3d
       -0.015971415 0.08877745 -0.06509586 0.08042473
000140 de 5b 13 bd fd 3e 8f bd 5d ed 94 bb d8 da d4 3d
       -0.035976283 -0.06994436 -0.0045448975 0.10393304
000150 c8 1e b1 bd 65 e5 1b 3d 30 bb 83 3d da 8e 1a 3d
       -0.08648449 0.038060565 0.064321876 0.03773389
000160 d7 11 9b 3d b6 96 40 3d 02 c2 09 be e6 ec 8c bd
       0.07571762 0.04701873 -0.13452914 -0.06881122
000170 3a ed 83 3d 3b b9 8a bd 25 7a 61 bd 15 e8 11 3d
       0.06441732 -0.06773611 -0.055048127 0.03562172
000180 bc 3e 8e 3b 85 7b 80 bd 0b f2 83 bd 20 1a 61 bc
       0.0043409746 -0.062735595 -0.064426504 -0.013739139
000190 4c 06 40 3c 0b 0b d2 bd a6 c5 f1 bc 71 eb b5 bd
       0.011720251 -0.102560125 -0.029513191 -0.088827975
0001a0 36 03 96 3c d1 a2 b7 3c 61 bb 0a be 81 bd 43 3c
       0.018312078 0.022416504 -0.13548042 0.011947037
0001b0 46 c7 6d 3d df ed 22 bd 96 5c 1d 3d 97 e9 84 3d
       0.05805137 -0.039777633 0.038418375 0.06489866
0001c0 72 02 9c bb 9f 73 80 bd 1e 00 9b bd cf 4d 75 3d
       -0.0047610337 -0.06272053 -0.07568382 0.059888657
0001d0 25 70 ba bc 4b c7 99 3c a8 38 43 bd c7 be b0 bb
       -0.022758553 0.018771788 -0.047661453 -0.005393836
0001e0 fb 46 85 3c 29 85 af bd a1 40 b4 bd 6d 6c f3 bd
       0.016269198 -0.0857032 -0.088013895 -0.11885915
0001f0 46 1f 2a 3d 64 35 79 3c 50 bf ae bc b4 d5 70 bd
       0.04153373 0.015210483 -0.02133146 -0.058797553
000200 32 34 a5 bd c7 75 f7 3d 2a b5 9e 3d 1f 1d 14 3d
       -0.08066596 0.12083011 0.07749398 0.036160585
000210 e0 77 f6 3d 2e ba 9f bd 2e ad 6f bd 5d 6c 14 3d
       0.12034583 -0.07799183 -0.058514766 0.036236156
000220 e1 51 09 3d 8e 96 59 3d 2a 8e d2 3d 6f 58 76 bd
       0.03352535 0.053122096 0.10281022 -0.06014293
000230 2f 9b 0f 3d c5 a2 ae 3d 2d 0b 3c 3d c8 80 8c 3c
       0.035060104 0.085271396 0.045909096 0.017151251
000240 51 22 b5 3d ae d0 e5 3a 1f d1 d7 bc 66 ab c3 bd
       0.08844436 0.0017533505 -0.026344834 -0.09554176
000250 7c 87 9f 3b 2b a7 80 3d 77 8f cc bc a2 3e 88 3d
       0.004868446 0.06281885 -0.024970753 0.06652571
000260 46 02 af 3d 89 fa 4d bc 7f 50 c3 bd 34 b8 89 3d
       0.085453555 -0.012571939 -0.09536838 0.06724587
000270 a7 06 9a 3d 5b 63 07 bc 16 50 23 bd 8a 65 2b be
       0.075208 -0.008263434 -0.039871298 -0.16737953
000280 ef 33 0e 3e 51 57 3f 3b e3 f9 69 3d 96 bb 3a 3d
       0.13886999 0.0029196332 0.057123076 0.045589052
000290 47 2b 91 3d 7c da 12 3d d6 4b d2 3d e6 ed 54 3d
       0.070883326 0.035852894 0.10268371 0.05198469
0002a0 0a c8 6e bd 7a 1f d3 bd 8f 70 e4 bc 57 3f 00 be
       -0.05829624 -0.10308738 -0.027885703 -0.12524162
0002b0 1d b9 1a bc 8b 40 c1 bc a5 c2 74 bd c6 76 11 3e
       -0.0094435485 -0.023590347 -0.05975594 0.14205465
0002c0 5b 8b df bc 62 1b 1d 3d b1 dd da bd 7c 24 83 bd
       -0.02728813 0.038356192 -0.106868155 -0.06403443
0002d0 42 45 12 bd 28 c4 92 bd 7c fc 85 bd c7 e3 a2 bc
       -0.03571058 -0.0716632 -0.06542298 -0.019884003
0002e0 bd cb 12 3d 64 13 ee bc cc 89 b9 3b a0 95 e1 3c
       0.03583883 -0.02906198 0.0056621786 0.027537167
0002f0 c6 60 44 3d 68 1f 46 bc 72 a7 14 bd 26 73 cf 3d
       0.047943853 -0.012092449 -0.0362925 0.10129385
000300 2f c2 8a bd 90 a3 e5 3d d9 71 b2 bd 2a 7c 89 3d
       -0.06775319 0.11212838 -0.08713121 0.067131355
000310 87 cc a1 bd 59 81 f2 bd 0e e1 82 bd d5 bd 7d bc
       -0.079003386 -0.11841077 -0.06390582 -0.015487154
000320 60 6b 81 bd 79 d5 95 3d 39 10 6f bd 61 09 1e 3d
       -0.06319308 0.07316107 -0.05836508 0.038583163
000330 13 25 ae 3d c1 79 4f 3d 50 24 e6 3d 33 51 e3 3b
       0.08503165 0.050653223 0.11237395 0.00693717
000340 71 a2 39 bd 17 8a 41 bc 06 ff 0b bb 39 a5 75 bd
       -0.04532093 -0.011812708 -0.0021361723 -0.05997202
000350 ff 87 0e bd 88 c7 1b bd 7d a1 d5 3c 6e a6 07 be
       -0.034797665 -0.038032085 0.02607798 -0.13247082
000360 a9 8d 60 3d 46 04 66 bd a6 d9 53 bd 71 23 25 bd
       0.054822598 -0.05615642 -0.051721238 -0.040317003
000370 20 aa 5b 3d 01 31 d7 3d 18 c4 03 3b 2f 3d cb 3d
       0.05362904 0.10507394 0.0020105895 0.09923779
000380 ba 5a 82 bc 95 9d c3 bd 2c 61 70 bc b5 e6 cd 3b
       -0.015912402 -0.09551541 -0.014671605 0.006283606
000390 51 43 66 3b 43 83 53 3d f6 b6 0b 3d 96 16 6b bd
       0.0035135339 0.051638853 0.034110032 -0.057394587
0003a0 c6 d8 d5 3d 13 9f 53 3d 7c 29 0c bd b7 ab 97 3d
       0.10441737 0.051665377 -0.03421925 0.07405799
0003b0 e2 84 c6 bd c3 c2 c2 bd 0a a9 97 bd e5 a8 e0 bc
       -0.09693314 -0.09509804 -0.074052885 -0.027424285
0003c0 bf 81 9e 3d 72 26 6e bd a9 ef c1 bc 5d fb e7 bc
       0.07739591 -0.058142133 -0.02367385 -0.028318102
0003d0 d7 aa 8c 3d d4 f6 57 bd 95 00 b3 3d d4 3a 92 3c
       0.068685226 -0.052725628 0.087403454 0.017850317
0003e0 64 05 ca bd 3e 37 53 bd b5 74 3f 3d fb 24 ee bc
       -0.098643094 -0.051566355 0.04674216 -0.029070368
0003f0 50 db ad bd 4a cd aa 3d bd 94 ed bb 7c be 66 3c
       -0.08489096 0.08339937 -0.007250397 0.014083501

fc2.bias f4 [84]
000000 f6 af 54 bd 49 59 3d 3d af 9a e4 3d 13 5f d9 3b
       -0.051925622 0.046227727 0.11162316 0.006633648
000010 8e 95 5d bd 11 c5 ad bd 44 3c 02 bd 35 23 a7 3e
       -0.054097705 -0.08484853 -0.031795755 0.32644048
000020 d7 92 8e 3e a3 e7 ed bd 5e 25 ab bd 22 f1 20 bd
       0.27846405 -0.11616447 -0.083567366 -0.039292462
000030 ed 16 84 3e 82 6e f7 3b 55 be 7b 3e 05 a1 aa 3e
       0.2579874 0.0075510154 0.24584325 0.33325973
000040 95 9f 89 bd 86 f0 ee 3d 54 fd 2c 3d 82 c8 b0 bd
       -0.06719891 0.1166697 0.04223378 -0.08631994
000050 86 d7 0e bd 77 a6 3b be 8b 42 48 3e 6c 79 04 3e
       -0.034873508 -0.1832522 0.19556634 0.12936944
000060 ad e5 29 3e 08 43 b6 3c e9 6f 4c bd 99 ca 1e 3d
       0.1659152 0.02224876 -0.049911413 0.03876743
000070 20 cf 03 bb a2 63 3b bc f5 3b 83 3d 8b 01 5c 3d
       -0.002011247 -0.0114373285 0.0640792 0.05371241
000080 96 5b 7b 3d 63 a1 ae bd 99 a4 14 3e 7e 8b e1 bd
       0.06136664 -0.08526876 0.14515914 -0.11012934
000090 5a d6 b3 bb 15 d0 99 3c 27 e8 3e 3c 1a 0f de 3e
       -0.005488199 0.018775979 0.011652029 0.43370897
0000a0 e6 e1 04 3e db 66 eb 3e 5c 87 d1 3d a9 97 3c bb
       0.12976798 0.4597691 0.10230896 -0.002877692
0000b0 49 31 20 be 24 d1 f2 3d 96 9c f3 bc 89 43 95 3b
       -0.15643801 0.11856297 -0.029737752 0.00455517
0000c0 f3 bf 1a bb 35 eb 66 3d 5b 01 ff 3c a1 9c 09 bd
       -0.0023612946 0.056376655 0.031128576 -0.03359664
0000d0 23 8d 89 bc 7f 08 93 3d 58 d0 ef 3d c5 64 6e bd
       -0.016790932 0.07179355 0.1170966 -0.05820157
0000e0 ae e4 24 bd 6d d2 a7 3d 4f d9 e9 bd fe 6c d3 bd
       -0.04025715 0.081944324 -0.114184014 -0.10323523
0000f0 fc 66 22 bc 61 5c 4e 3e 41 06 3f 3d 2e a4 8e 3e
       -0.009912249 0.20152427 0.046636824 0.27859634
000100 a9 c9 81 bd 07 61 3a 3d f8 94 24 3e 4c 95 95 3d
       -0.06337292 0.04550269 0.16072452 0.07303867
000110 00 1e b0 3d fc de 32 3e 7d ec 83 3e c3 14 94 bd
       0.08599472 0.17467874 0.25766364 -0.072305225
000120 30 2e 10 3d 25 01 b2 bd a0 26 9c 3e b5 7d 2b be
       0.035200298 -0.086916246 0.3049822 -0.16747172
000130 66 ec 65 bd ce 15 0b bd b2 89 73 3e eb a1 e3 bd
       -0.05613365 -0.03395634 0.23782995 -0.11114868
000140 31 2b 9f bc 76 2d 22 3d ec 19 b4 bb 12 07 0c 3d
       -0.019429775 0.039594136 -0.005496254 0.03418643

fc3.weight f4 [10, 84]
000000 9a 69 63 3e 4f eb a4 3e d4 1a 2b be fd 71 db bc
       0.22208253 0.32210776 -0.16709453 -0.026787752
000010 52 a8 e9 bc 02 9d c0 bd 86 b9 5a 3e 52 37 89 bd
       -0.028522644 -0.09404947 0.21359834 -0.06700005
000020 5f 6a b8 3d 6a a9 c5 bd d4 0b 43 3c ff 5f 66 bd
       0.09004664 -0.09651454 0.0119046755 -0.056243893
000030 1f 41 0c be 96 d5 29 3d 82 71 ec 3d 9d fe 88 3e
       -0.13696717 0.041463457 0.115450874 0.26756755
000040 27 aa ab 3c e3 0a 46 3e e1 fc a6 bc a3 5e 7c 3d
       0.020955158 0.1934009 -0.020384254 0.06161369
000050 1e cc 46 be ab d6 f8 3d 57 c7 cc 3d 9d f0 d9 bd
       -0.19413802 0.1215032 0.099989586 -0.106415965
000060 0d 63 d7 3c b6 72 20 be 92 9e 02 3e 18 56 55 bd
       0.026292348 -0.15668759 0.12755802 -0.05208406
000070 08 f6 db 3d 6c 74 b9 bb 29 d2 85 3e 7e 77 32 3d
       0.10740286 -0.0056596305 0.26136902 0.043570988
000080 ac ad 49 3d 98 f9 89 3d f2 e4 3e be 2e 43 e2 3d
       0.049237892 0.06737059 -0.18642023 0.1104797
000090 b5 96 c9 3c a7 74 a2 bd da d9 66 bc 99 6e 8e be
       0.024607996 -0.07932406 -0.014090026 -0.27818754
0000a0 f9 a6 0f 3c 82 da 9f bd 56 4e 5c bb cb d9 46 bd
       0.008767837 -0.07805349 -0.0033616028 -0.048547547
0000b0 b6 3f 05 bd 69 f0 83 be fc a7 3e 3e e0 f0 b4 3b
       -0.032531463 -0.25769356 0.18618768 0.0055218786
0000c0 ac 63 b4 bc db 26 1e 3e 0d 1c 7f 3e c9 0b e1 3a
       -0.022020184 0.1544451 0.24913044 0.001716965
0000d0 ac 4b a2 3c c8 e0 00 bc 37 a8 f5 bd 37 f7 fd bd
       0.019811474 -0.007866092 -0.11994975 -0.12400668
0000e0 1c ff ac 3d 77 c4 8e bd 29 35 42 3e f5 22 17 3d
       0.08447096 -0.069710664 0.18965591 0.036898572
0000f0 0e 0e 30 bd a6 03 b1 bd 89 26 25 3e 08 e2 54 be
       -0.042982154 -0.08643274 0.16127981 -0.20789349
000100 7f c4 9b 3c 5b 4d 19 3d f0 2e df 3d 69 a4 c4 3d
       0.019014595 0.037427288 0.108976245 0.09601671
000110 38 0c ec 3d 52 fe ce 3c 6b 5e 8d be 4c 56 21 3c
       0.11525768 0.025267754 -0.27611098 0.009847235
000120 95 83 9d bd 09 2e 2a be 53 9a a8 3e 0c 59 54 3d
       -0.07691113 -0.16619124 0.3293024 0.051842734
000130 1a d3 f9 3b 03 0a 8e bd 06 47 7f 3d 95 34 d1 bd
       0.007624042 -0.06935503 0.062323593 -0.10215107
000140 54 33 f8 3d 5b c4 2f bd 48 ef 37 3c 8f 80 1f 3e
       0.12119165 -0.04291187 0.011226483 0.15576385
000150 94 75 72 3e 48 eb cd bd 52 dc 81 3d 7b b8 c5 3d
       0.23677665 -0.10054642 0.06340851 0.096543275
000160 e2 e8 95 bc 51 cd 63 3e cf 38 5c 3d 0b a3 03 bf
       -0.018299524 0.2224629 0.053765114 -0.5142066
000170 8f 1d ea bd 75 46 e0 3d 34 de b1 3d 19 f4 c7 bc
       -0.11431419 0.109509386 0.0868496 -0.024408387
000180 e7 50 0f be dc ec 92 bd a3 1f 59 be aa 8f 43 be
       -0.13995706 -0.071740836 -0.21203475 -0.19097772
000190 19 2b c2 3c d7 6b da 3d d0 cf 75 bd 99 0b 3d bd
       0.023702191 0.106651 -0.06001264 -0.04615364
0001a0 e7 6f ff 3b 34 e6 75 bb 5a 03 84 be 40 d6 54 bd
       0.007795322 -0.0037521245 -0.25783807 -0.051962137
0001b0 a6 e4 a8 bd 08 41 5f 3d 86 42 02 bb 06 34 3a bc
       -0.08246736 0.054505378 -0.0019876077 -0.011364942
0001c0 2b b2 d1 bd 33 30 4a be a5 ac e6 3d 6e bb 89 3c
       -0.10239061 -0.19744949 0.11263398 0.016813006
0001d0 2d bb 83 bd 0e cf a6 3e 6e 71 73 3c 08 14 88 3e
       -0.06432185 0.32579845 0.014858587 0.26577783
0001e0 73 e3 d8 3d e7 7d 8c 3d 5d 9a b6 3d ed 72 84 be
       0.105902575 0.068599515 0.08916161 -0.2586893
0001f0 4a b2 46 be c3 8e 59 be e4 f8 90 bd 75 f2 74 bc
       -0.1940395 -0.21245866 -0.07078722 -0.014950384
000200 2b bd 88 3e d0 af 07 3e 37 9c 87 3d 6c a9 3f 3d
       0.26706824 0.13250661 0.066215925 0.046792433
000210 8b 40 b5 bc fa 65 7e 3e 19 d4 50 3c b7 d3 b8 bc
       -0.022125503 0.24843588 0.0127458805 -0.022561891
000220 03 de 86 be b5 82 06 bd e5 b8 2d 3e ff 3f 78 3d
       -0.26341256 -0.032839496 0.16965063 0.060607906
000230 18 0a 14 3e 96 ad 0e be 5f c7 f8 3d f5 55 03 3c
       0.14456975 -0.13933405 0.12147402 0.008016099
000240 44 df ba 3c dc 89 c6 bd e8 56 30 3e 4d 7e 0e 3e
       0.02281154 -0.09694263 0.17220652 0.13915367
000250 9a af 4a bd 65 8b 53 3d f4 d9 92 bc eb 70 43 3d
       -0.049483873 0.05164661 -0.017926194 0.04771511
000260 4a c6 5a bc 48 34 4d 3e a3 b0 4b be fd da a6 3d
       -0.01335294 0.20039475 -0.198916 0.081472374
000270 e3 8f 19 be 47 b5 dc 3d e5 f5 5e be 42 27 bb 3d
       -0.14996295 0.107767634 -0.21773489 0.09138347
000280 06 c1 0b 3c 17 f3 bc bd 24 0e 35 3d 5a 96 83 3e
       0.008529907 -0.09226053 0.04420294 0.25700647
000290 d7 c5 7d 3e 77 b8 46 3e ca 47 dc bd cc b2 60 3c
       0.24782501 0.19406305 -0.1075588 0.0137145035
0002a0 4d 65 49 bd b5 6a cf 3d 1d 30 8f 3d 35 6f 75 3d
       -0.049168874 0.101277746 0.06991599 0.05992051
0002b0 25 d8 3e bc 43 59 7e bc 95 c2 61 bd 0f 46 f4 3d
       -0.011648213 -0.015524211 -0.05511721 0.11927425
0002c0 ec 90 a5 bc 23 4b 5c bb 3e ed 84 3b 7f 24 4e 3d
       -0.020210706 -0.003361412 0.004056602 0.050327774
0002d0 00 0b 0d 3d 6d 15 25 3e 4b cd b2 3e 3c dc 6a bc
       0.03443432 0.16121455 0.3492225 -0.0143347345
0002e0 b6 19 3c 3d ae ab cc bd d1 00 a4 3c ff 69 07 3e
       0.045922957 -0.09993683 0.02001992 0.13224028
0002f0 46 0d 14 be 9d fd 53 3d 7e 73 d4 3d 58 c6 9e bd
       -0.14458188 0.051755536 0.10373591 -0.07752675
000300 86 76 5d bc 38 94 13 be d7 9c b5 3d 7a 28 59 3b
       -0.013517028 -0.1441201 0.088678055 0.0033135698
000310 d5 51 4f be 70 91 9e 3c 75 65 af 3b f8 9d b6 bd
       -0.2024606 0.01935646 0.005352671 -0.08916849
000320 a1 13 18 bd a1 77 91 3d 8f 27 a2 3e e8 ce 3f be
       -0.037128095 0.071028955 0.31670806 -0.18731272
000330 4c 6c 01 3c fc 8a 6d 38 62 c5 d3 3d 69 b3 55 3e
       0.007899355 5.6634643e-05 0.10340382 0.20869221
000340 8b 67 d9 3d 50 e0 67 3e ea c1 4e bd e1 33 42 3d
       0.106154524 0.22644162 -0.0504779 0.047412757
000350 26 97 eb bd 09 4d b7 3d 82 99 a0 bc 66 b3 08 be
       -0.11503439 0.0895024 -0.019604448 -0.13349685
000360 aa ac d1 3c 98 78 de bd b5 1d 3b bd 68 bb d0 bc
       0.025595028 -0.10862845 -0.045682628 -0.025479987
000370 62 df a4 3d 87 45 88 3c 44 9b 31 3c ca 3b da bc
       0.080504194 0.016634716 0.010840241 -0.026639838
000380 a5 96 26 3d a0 22 4b 3d 98 8a 5e be df 61 a6 3d
       0.04067101 0.049593568 -0.21732557 0.08124136
000390 d5 da b1 bd 83 99 15 be c0 a0 16 be 8e a0 25 3c
       -0.08684317 -0.14609341 -0.14709759 0.01010908
0003a0 69 96 8d bc 27 aa e8 bd 5f bd 78 bd a1 9b de 3d
       -0.017283635 -0.11360579 -0.060727473 0.108695276
0003b0 aa 15 28 3c 83 03 34 bc d1 c1 c1 bc 8f c3 56 bd
       0.010259071 -0.010987165 -0.02365199 -0.052432593
0003c0 7b 95 e3 3c a7 fd 12 3e d0 ee 66 3e 23 ae 36 be
       0.027781239 0.14354573 0.22552037 -0.17839865
0003d0 c3 3f 9c 3d 70 24 a8 bd 6f 2b 8f 3e 73 36 28 bd
       0.07629349 -0.08210075 0.27962825 -0.04106755
0003e0 e2 d0 6d be 46 fa fd bd 8c 67 96 3d 44 a7 29 3e
       -0.23224214 -0.124012515 0.07343969 0.16567713
0003f0 e6 c1 ff bd c7 ba a5 3d dc 23 6c 3d 33 fa 18 be
       -0.12488155 0.080922656 0.057651386 -0.14939193

fc3.bias f4 [10]
000000 e0 18 b7 be 50 75 3a bf 85 2a 63 3e 1c 55 77 3e
       -0.35761166 -0.72835255 0.22184189 0.2415356
000010 2d 7e 0f 3f 2b 49 8f be 4f 0c c1 3e f2 59 86 be
       0.56051904 -0.2798551 0.37704703 -0.26240498
000020 17 08 65 3e 1a 56 83 be
       0.22366367 -0.25651628
